emotion/ml_models/best_model_v6.tflite (tflite, 36200 bytes, 15 tensors)

arith.constant3 f4 [4]
00000000: 0a9a babb 5699 c8bd 3f4a 8cbc 924e dbbc
-0.0056946324 -0.097948715 -0.017125247 -0.026770864

arith.constant4 f4 [8]
00000000: f592 a23f 8f7e 78bc 9d80 a13f 2760 9e3f
00000010: 3701 a23f d73c a93f 2699 91bc a2fc 9c3f
1.2701098 -0.015166893 1.2617375 1.2373093 1.2656621 1.3221692 -0.017773222 1.2264597

arith.constant6 f4 [4, 8]
00000000: 624f 1b3e ca71 0f08 ced9 1c3e 05f6 183e
00000010: c3b3 093e f9e5 0d3e 8bfd 2307 47b4 0b3e
00000020: 5fd8 ab07 8042 1808 f089 3687 0aad 8e07
00000030: 840e 0988 2051 1f07 a882 e087 9120 f387
00000040: ce5d 143e 9bb8 2a87 68b5 123e 70e9 093e
00000050: 18cc 0d3e 828a 023e 244e f887 c714 143e
00000060: 792f ec87 04e9 0608 25bc 2108 aea4 8a87
00000070: 908e 4607 3955 4587 b45b c487 deaa aa87
0.15167001 4.3166256e-34 0.15317461 0.14937599 0.1344748 0.13857259 1.2337267e-34 0.13642989
2.5856392e-34 4.5819007e-34 -1.3732694e-34 2.1467489e-34 -4.1244e-34 1.1985671e-34 -3.3780567e-34 -3.6581717e-34
0.14488909 -1.2843629e-34 0.14327013 0.13467956 0.13847387 0.12748149 -3.736082e-34 0.14461051
-3.5537235e-34 4.0598067e-34 4.867034e-34 -2.0860722e-34 1.493776e-34 -1.4845677e-34 -2.95447e-34 -2.5679184e-34

arith.constant7 f4 [1, 4]
00000000: 0f19 b1be a529 9987 84b1 aebe 0530 2688
-0.3458943 -2.3045358e-34 -0.3411981 -5.0010255e-34

arith.constant8 f4 [32, 1, 3, 1]
00000000: 403f d33e 0f56 e43e 2aca 843e 2ece 013f
00000010: a26d 27bd 5f49 3c3e 3247 973e 4164 443f
00000020: 3bb5 093f 74d0 343f 5258 783e 6720 81be
00000030: 4c18 14bd bae9 52be 0099 fc3b 147c b23f
00000040: 425f 9b3e 8e0b a0bf f8f7 4bbd 0ce5 5dbe
00000050: 20a4 073c 620e a93b 262b 4e3f d26d 593f
00000060: f7b4 bdbd 9cdc 47be 337d dcbd 3768 49be
00000070: 6ed0 b63c af5e 393d e7ff 91bf 990f dc3e
00000080: 8e5a b43e 6035 66be 0f84 1ebe bf1a 993d
00000090: a7a4 0b3e 088b c2bd f99e d7bd 1473 e73e
000000a0: 50f3 f03e 8201 733c fa4d 29bd 95dd 763f
000000b0: 7627 603f c239 a53d a50c 41be 20e2 f43d
000000c0: defb 48bf ddb3 563f 0ef4 913f 157a 16be
000000d0: c193 77be 3c6a e03d afeb 87bf c7f2 713f
000000e0: 299e b23f 4f00 ddbe ac9e 433f 6e78 803f
000000f0: 6855 103c d45e b23c 1df2 b3bb 26fb 143f
00000100: b57b ee3e eda8 56bd ee72 c4bf 6b52 043f
00000110: 60bb 4b3f 081d 113e fd10 163e e27f 30bf
00000120: 2003 f13e eb51 8d3e a90e 453e d503 a03f
00000130: aa77 94bd c92a 8fbf 4d5b 23bf 1569 8fbe
00000140: 793a a7be bb09 213f c6aa 21be 82a8 1abf
00000150: 08db 083f c763 553f 9dca 803e ba9e e4bd
00000160: 4954 4b3f 247d 663f 327d 483c f187 28be
00000170: 8c46 343c 72db 9f3f a789 223e 5cfb 2abf
0.41259193 0.44596907 0.2593549 0.5070523 -0.04087604 0.18387364 0.29546505 0.76715475
0.5379216 0.70630574 0.24252442 -0.25220034 -0.036155984 -0.20596972 0.0077086687 1.3944116
0.30346113 -1.2503526 -0.04979703 -0.21669406 0.008278877 0.0051591853 0.8053459 0.849332
-0.09263032 -0.1951775 -0.10766067 -0.19668661 0.022316184 0.045256313 -1.140622 0.4298065
0.35225338 -0.22481298 -0.15480064 0.074758045 0.13637029 -0.09499174 -0.105283685 0.45204985
0.47060633 0.014831902 -0.04133413 0.9643186 0.8756021 0.08067657 -0.1885248 0.119571924
-0.7850932 0.838682 1.1402605 -0.14695008 -0.24177457 0.109577626 -1.06188 0.94511074
1.3954517 -0.43164298 0.7641399 1.0036752 0.008809425 0.021773733 -0.0054915086 0.5819572
0.46578756 -0.052407194 -1.5347574 0.5168826 0.79582787 0.14171231 0.14654918 -0.68945134
0.47072697 0.2760156 0.19243874 1.250117 -0.072493866 -1.1184932 -0.6381119 -0.2800986
-0.326618 0.6290547 -0.15787801 -0.6041337 0.53459215 0.83355373 0.25154582 -0.11163087
0.79425484 0.900347 0.01223688 -0.16458108 0.011003148 1.2488844 0.15872823 -0.66789794

arith.constant9 f4 [64]
00000000: 6258 3d3f 05ab 203f 93f9 cdbe 97e8 a5be
00000010: 981b 253f 68c3 9abd 03df 1a3f e829 203f
00000020: 3369 f4be ced9 1b3f c716 413f f48c 2c3f
00000030: 2433 383f a502 273f d0dd b63e 1c03 273f
00000040: 8e5b 2e3f 5ec7 2f3f 62b0 4ebe 4a11 233f
00000050: d653 45be 3181 38be 4071 52be 42f3 e2be
00000060: c314 f2be f94b a53e 458f 1d3f 1e04 273f
00000070: 5439 0c3f 167d 413f c7e2 2a3f bdd3 2e3f
00000080: 9a3c 4c3f f99b debd 0698 aebe 31d6 09be
00000090: 29cf b3bd 534a 3d3f 6582 21bd 5555 93be
000000a0: 3f06 f8be 885e b4bd e8cb 263f 92b7 273f
000000b0: dce9 17be 2f6a 07bd ff48 2b3f f5a4 283f
000000c0: 2c34 2abd 0155 14be 1a40 1dbf 6268 84be
000000d0: 5022 8ebe 5e29 213f e9a3 43bd 8a3b cbbe
000000e0: f557 f23e d7fd 53be 5e4f 55be 51da 343f
000000f0: db46 3b3e 070c 91bd 0ea7 f7be 5e19 05bf
0.73962986 0.62760955 -0.40229473 -0.32404014 0.6449523 -0.07556802 0.6049654 0.62563944
-0.4773651 0.6087922 0.7542538 0.6740258 0.71953034 0.6523841 0.35716105 0.6523912
0.6810845 0.68663585 -0.20184472 0.63698256 -0.19270262 -0.18018033 -0.20551014 -0.44326216
-0.47281465 0.32284525 0.61546737 0.6524066 0.54774976 0.7558149 0.66752285 0.68291837
0.7977997 -0.10869593 -0.3410036 -0.13460614 -0.08779747 0.73941535 -0.039430995 -0.2877604
-0.48442265 -0.08807093 0.65154886 0.6551448 -0.14835304 -0.03306025 0.6690826 0.65876704
-0.04155366 -0.14485551 -0.61425936 -0.25860888 -0.27760553 0.62953746 -0.04776374 -0.39693862
0.4733273 -0.20702301 -0.20831057 0.70645624 0.18288748 -0.07082372 -0.4836964 -0.5199183

arith.constant10 f4 [32]
00000000: 909f b93e 0b51 043f e2e5 3abd 9dd9 e1bd
00000010: e6f9 023f 3980 1c3f 4a4b 223f d237 c2be
00000020: 2ed9 95bd e06b e1bd 05c0 1abf 7497 2ebe
00000030: 8841 d93e c397 1f3f 5908 f73e b5d6 9abe
00000040: ee80 48be a716 49bd 81a3 03bf 8491 0d3f
00000050: 3ffd 0fbf 4a8c 0d3f 2f05 e8be bfbd 2b3e
00000060: 2501 e5be cf96 763e fde8 cdbe 5a59 e4be
00000070: 0606 24bd 8b8a 063f 9403 d53e 060c 14bf
0.3625455 0.5168616 -0.04562939 -0.110278346 0.51162565 0.6113315 0.6339613 -0.37933213
-0.07316814 -0.11006904 -0.6044925 -0.17049962 0.4243281 0.62340945 0.48248556 -0.30241933
-0.19580433 -0.04909387 -0.5142136 0.55300164 -0.562458 0.5529219 -0.45316455 0.16771601
-0.44727436 0.24080966 -0.40216818 -0.4459942 -0.040044807 0.5255515 0.41604292 -0.57830846

arith.constant11 f4 [32]
00000000: 42e3 42bd dc86 44be 428e 9c3e 0561 2d3e
00000010: 621c 853e f236 c0bd 9514 c63e d6d6 8ebe
00000020: 158c 923e 9307 2fbd 07cb 7bbd c14f 10be
00000030: 30c5 0cbd ac11 403e 7cc0 c1bd 03d6 b43e
00000040: 261b e93d 1638 eabd dc5c b53e 0000 0000
00000050: 5791 953e 4c72 34be 8df5 dabc ed34 9f3e
00000060: 4c12 afbe 5964 b7bc 5759 a7be 6fd3 9b3e
00000070: 4b93 5bbe 4f50 94be 3b2b 55be 857d 913e
-0.04758001 -0.1919207 0.30577284 0.16931541 0.25998217 -0.0938548 0.38687578 -0.27898282
0.286225 -0.042731833 -0.06147292 -0.14092924 -0.03436774 0.18756741 -0.094605416 0.35319528
0.11382131 -0.11436479 0.3542241 0.0 0.29212448 -0.17621726 -0.026728416 0.31095067
-0.34193647 -0.022386717 -0.32685348 0.3043475 -0.21442907 -0.2896752 -0.20817272 0.28416076

arith.constant12 f4 [32]
00000000: 0616 babd a4bd 5c3e 660d 483e 2955 88bd
00000010: 3395 7bbd e246 0ebe 92ca fbbd 5995 c1bd
00000020: 2355 003f 2e57 99be 9d68 1cbd 2ab7 41bd
00000030: 26e5 3ebe 8500 98be 2267 44bd 5793 df3e
00000040: c45a e4bd 2ec3 01bf 4759 263e 84b8 fd3d
00000050: 0059 8dbc 8724 f03d 3da4 3abe 2194 303e
00000060: b46e 09bd 6918 06bd a95f e43d 7e86 8fbc
00000070: d8d5 933d f111 aabd d20e 98bc 2066 59bd
-0.09086232 0.21556717 0.19536361 -0.06656868 -0.061421584 -0.13894227 -0.122944966 -0.09452314
0.5012991 -0.29949325 -0.038185704 -0.04729382 -0.186421 -0.29687896 -0.047949918 0.436671
-0.11150125 -0.50688446 0.16244994 0.12388709 -0.017254353 0.11725717 -0.18226714 0.17244007
-0.03355284 -0.032738123 0.11151058 -0.017520186 0.07218522 -0.08304203 -0.018561754 -0.05307591

arith.constant13 f4 [32]
00000000: 680e 39be 5674 39be 2b89 ddbd 541d 0dbe
00000010: 0000 0000 b54b 133c 0000 0000 d9d1 8fbd
00000020: 3121 88bb 176a 23bd 0437 553d 538c 65bd
00000030: 03c0 c1bc bd49 21be 7724 87bd 5e72 69bd
00000040: 3d91 1dbd c1ba ecbc 48da 02bd e059 43bd
00000050: 281c 97bd 1967 31be 5a3f 993d 1fec b0bd
00000060: 9878 2dbe 5d8a a9bc ee77 643e e6ed 21be
00000070: c316 88bd a204 96bd 888e cdbc b13b c3bc
-0.18071902 -0.18110785 -0.10817178 -0.13780719 0.0 0.008990218 0.0 -0.07022447
-0.0041543473 -0.039896097 0.05205442 -0.056042027 -0.023651129 -0.15750785 -0.06598752 -0.056993835
-0.03846859 -0.028897645 -0.03194645 -0.047693133 -0.07378417 -0.17324485 0.074827865 -0.086387865
-0.16940534 -0.02069586 0.22311375 -0.15813407 -0.066449665 -0.073251024 -0.025092378 -0.023832174

tfl.pseudo_qconst i1 [64, 1, 5, 32]
00000000: ed00 01fc 0e01 06c1 f905 c011 080b 0911
00000010: 1a05 d60d 9c0c 8100 a915 1c9f 030a ff89
00000020: bb15 03fc 09cb 00e2 fb01 c00e 08ff fb03
00000030: c305 d702 f606 e8de b5d8 0bf8 05f6 4cbd
00000040: ecf9 fffb 0500 ed0b ff01 e6ac 06f9 f4c5
00000050: f800 d4fb 1b02 ebc4 e21b 131b 05f7 2008
00000060: 1808 fffd 00f6 f9e3 fb00 09b8 e5fe ffdb
00000070: 10fc ccf0 ceef 0118 06e3 07ff fbe2 2ae3
00000080: 0f0f 0604 fc23 10bb fb05 e7e9 d71e 08e7
00000090: 9bfa b718 e90d f214 f9cf b4c8 0410 1f01
000000a0: ee11 fbfc 0818 0fc4 fe0b b70a 2110 1113
000000b0: fefd cc18 be0b 87ec 811d 25c7 ff1c 188d
000000c0: e307 08ff 17d8 0ac3 0800 b506 f5f7 10f0
000000d0: d701 e50f db17 c0cf 9beb f8e0 fc16 4fac
000000e0: ef05 feff 120b 0008 020b 02ac 04fe 00cd
000000f0: dcfd d2f9 130e dadc c91a 3607 f9f9 12f0
-19 0 1 -4 14 1 6 -63
-7 5 -64 17 8 11 9 17
26 5 -42 13 -100 12 -127 0
-87 21 28 -97 3 10 -1 -119
-69 21 3 -4 9 -53 0 -30
-5 1 -64 14 8 -1 -5 3
-61 5 -41 2 -10 6 -24 -34
-75 -40 11 -8 5 -10 76 -67
-20 -7 -1 -5 5 0 -19 11
-1 1 -26 -84 6 -7 -12 -59
-8 0 -44 -5 27 2 -21 -60
-30 27 19 27 5 -9 32 8
24 8 -1 -3 0 -10 -7 -29
-5 0 9 -72 -27 -2 -1 -37
16 -4 -52 -16 -50 -17 1 24
6 -29 7 -1 -5 -30 42 -29
15 15 6 4 -4 35 16 -69
-5 5 -25 -23 -41 30 8 -25
-101 -6 -73 24 -23 13 -14 20
-7 -49 -76 -56 4 16 31 1
-18 17 -5 -4 8 24 15 -60
-2 11 -73 10 33 16 17 19
-2 -3 -52 24 -66 11 -121 -20
-127 29 37 -57 -1 28 24 -115
-29 7 8 -1 23 -40 10 -61
8 0 -75 6 -11 -9 16 -16
-41 1 -27 15 -37 23 -64 -49
-101 -21 -8 -32 -4 22 79 -84
-17 5 -2 -1 18 11 0 8
2 11 2 -84 4 -2 0 -51
-36 -3 -46 -7 19 14 -38 -36
-55 26 54 7 -7 -7 18 -16

tfl.pseudo_qconst1 i1 [32, 1, 5, 32]
00000000: 05de 0c06 1103 1dd2 3005 02da faf9 0710
00000010: d803 1d04 1bfe fc03 0d00 1536 d6f2 0f1f
00000020: f80b 0cfc 0804 0ce6 0300 07d4 040e fd06
00000030: 0ffb e605 01f0 feeb 81fa d1e6 09ed ae12
00000040: 02fb fdfe fe05 f529 f7fb fd35 fd1d fd01
00000050: 2bfc 1d04 0417 0001 57fe 1c16 eaff 28ff
00000060: fd11 f901 0cff f5d1 f900 fad1 0012 000c
00000070: ff04 d206 0203 fffb 9306 effb ff0a eef2
00000080: fff5 080f fe05 e8be f502 ffdc fec8 06fd
00000090: c107 0306 ebff 0101 cb03 060d 22e7 0cf5
000000a0: fffc 0d09 0d0a 0beb 07fd 0311 01e9 fdfd
000000b0: 05f5 0404 10fd 070d c905 0e0b 1200 0019
000000c0: 0403 f704 fc08 03e7 0007 05f2 fffa fc06
000000d0: e906 f401 1203 0521 c9fd fcfe 0a09 0bfb
000000e0: ff04 00ff f2f8 f5f0 f700 0201 02e5 f908
000000f0: f8fd f802 f506 06fc 9403 03f4 0708 03f1
5 -34 12 6 17 3 29 -46
48 5 2 -38 -6 -7 7 16
-40 3 29 4 27 -2 -4 3
13 0 21 54 -42 -14 15 31
-8 11 12 -4 8 4 12 -26
3 0 7 -44 4 14 -3 6
15 -5 -26 5 1 -16 -2 -21
-127 -6 -47 -26 9 -19 -82 18
2 -5 -3 -2 -2 5 -11 41
-9 -5 -3 53 -3 29 -3 1
43 -4 29 4 4 23 0 1
87 -2 28 22 -22 -1 40 -1
-3 17 -7 1 12 -1 -11 -47
-7 0 -6 -47 0 18 0 12
-1 4 -46 6 2 3 -1 -5
-109 6 -17 -5 -1 10 -18 -14
-1 -11 8 15 -2 5 -24 -66
-11 2 -1 -36 -2 -56 6 -3
-63 7 3 6 -21 -1 1 1
-53 3 6 13 34 -25 12 -11
-1 -4 13 9 13 10 11 -21
7 -3 3 17 1 -23 -3 -3
5 -11 4 4 16 -3 7 13
-55 5 14 11 18 0 0 25
4 3 -9 4 -4 8 3 -25
0 7 5 -14 -1 -6 -4 6
-23 6 -12 1 18 3 5 33
-55 -3 -4 -2 10 9 11 -5
-1 4 0 -1 -14 -8 -11 -16
-9 0 2 1 2 -27 -7 8
-8 -3 -8 2 -11 6 6 -4
-108 3 3 -12 7 8 3 -15

tfl.pseudo_qconst2 i1 [32, 1, 3, 32]
00000000: dceb f4f2 569a bd9f fec3 f44d 0bf6 dec9
00000010: e0ce 8c44 9fed ebc0 c4ec 1461 facf ae6b
00000020: 510d d230 dd0c 31de ed0d bd27 ec96 66f0
00000030: cd19 8186 0f21 bedd 633b fcc7 c8ab de21
00000040: 9b96 eb9d eafa d917 3c2f e7a3 aaf9 ad4f
00000050: 0d05 20f7 0538 d2b3 4338 e8c3 aa39 4b5d
00000060: 31d4 3208 1037 2748 cf04 02fa 615b 06e4
00000070: 0fec 03eb 03bf 57fc 01f5 dff0 e716 0916
00000080: f734 24f4 03ef f8d3 2dfd 11ef 771a 0b16
00000090: d802 2229 0df9 1616 0417 2bee 11f4 0d01
000000a0: 04d2 19e8 ee00 0956 0bca 0ef2 552e 07d6
000000b0: 09fd 09de 047f 0614 0e17 0aec 690b fff5
000000c0: edc7 d20e 0f0c 02b9 01db f8f4 85bf 04d6
000000d0: ce03 d9d4 0b1e 09fc f90e 13fd f4e9 f5f4
000000e0: 1905 08fc fc17 0ff7 1201 fb0d d7dd 0b27
000000f0: 0514 dc1c f3fd 09e1 f5fb fa0f 1901 0907
-36 -21 -12 -14 86 -102 -67 -97
-2 -61 -12 77 11 -10 -34 -55
-32 -50 -116 68 -97 -19 -21 -64
-60 -20 20 97 -6 -49 -82 107
81 13 -46 48 -35 12 49 -34
-19 13 -67 39 -20 -106 102 -16
-51 25 -127 -122 15 33 -66 -35
99 59 -4 -57 -56 -85 -34 33
-101 -106 -21 -99 -22 -6 -39 23
60 47 -25 -93 -86 -7 -83 79
13 5 32 -9 5 56 -46 -77
67 56 -24 -61 -86 57 75 93
49 -44 50 8 16 55 39 72
-49 4 2 -6 97 91 6 -28
15 -20 3 -21 3 -65 87 -4
1 -11 -33 -16 -25 22 9 22
-9 52 36 -12 3 -17 -8 -45
45 -3 17 -17 119 26 11 22
-40 2 34 41 13 -7 22 22
4 23 43 -18 17 -12 13 1
4 -46 25 -24 -18 0 9 86
11 -54 14 -14 85 46 7 -42
9 -3 9 -34 4 127 6 20
14 23 10 -20 105 11 -1 -11
-19 -57 -46 14 15 12 2 -71
1 -37 -8 -12 -123 -65 4 -42
-50 3 -39 -44 11 30 9 -4
-7 14 19 -3 -12 -23 -11 -12
25 5 8 -4 -4 23 15 -9
18 1 -5 13 -41 -35 11 39
5 20 -36 28 -13 -3 9 -31
-11 -5 -6 15 25 1 9 7

tfl.pseudo_qconst3 i1 [32, 1, 3, 32]
00000000: 0f8c 15de f1a4 e730 0bf4 44eb 1681 1eec
00000010: 5c04 5d34 fa9b 2705 d5cd 1cf8 d52c 13b8
00000020: 1db7 fbed 0122 ed3e fbe9 36fa 00d7 3411
00000030: 31f9 472d 00d9 12f6 ee02 f0e4 371b 1625
00000040: 02f2 04f8 fa42 12f6 0afa fb0e 0423 ea08
00000050: c117 b3e8 1f30 d706 da27 0b15 f4d0 0c20
00000060: 19e7 0cb7 ef1c 0dff 0ef3 3d0a 00cd 1607
00000070: 04f2 0d0f f6d3 2209 c539 f815 1af9 f0f4
00000080: ea02 d6a1 f75f 08a3 14fd e30f fece b512
00000090: 9ef3 8eb1 fbac c5eb f33c 0418 e3bd f010
000000a0: 9efd 9f27 120b f5a1 20ee fbf2 1209 a4fb
000000b0: c1f8 c6c2 090a f40b eb19 3c14 81b5 10f6
000000c0: a1e9 b22d f4fb fc81 fd01 f0f2 00f4 b609
000000d0: 8cf0 929d 0af3 c8f8 f2de e2ec a1b6 fce4
000000e0: adf4 bde1 f7df 0fb8 14f6 1ff6 f1fd d606
000000f0: f3f3 eddd 07f0 40fb ead3 44e3 aac7 0bde
15 -116 21 -34 -15 -92 -25 48
11 -12 68 -21 22 -127 30 -20
92 4 93 52 -6 -101 39 5
-43 -51 28 -8 -43 44 19 -72
29 -73 -5 -19 1 34 -19 62
-5 -23 54 -6 0 -41 52 17
49 -7 71 45 0 -39 18 -10
-18 2 -16 -28 55 27 22 37
2 -14 4 -8 -6 66 18 -10
10 -6 -5 14 4 35 -22 8
-63 23 -77 -24 31 48 -41 6
-38 39 11 21 -12 -48 12 32
25 -25 12 -73 -17 28 13 -1
14 -13 61 10 0 -51 22 7
4 -14 13 15 -10 -45 34 9
-59 57 -8 21 26 -7 -16 -12
-22 2 -42 -95 -9 95 8 -93
20 -3 -29 15 -2 -50 -75 18
-98 -13 -114 -79 -5 -84 -59 -21
-13 60 4 24 -29 -67 -16 16
-98 -3 -97 39 18 11 -11 -95
32 -18 -5 -14 18 9 -92 -5
-63 -8 -58 -62 9 10 -12 11
-21 25 60 20 -127 -75 16 -10
-95 -23 -78 45 -12 -5 -4 -127
-3 1 -16 -14 0 -12 -74 9
-116 -16 -110 -99 10 -13 -56 -8
-14 -34 -30 -20 -95 -74 -4 -28
-83 -12 -67 -31 -9 -33 15 -72
20 -10 31 -10 -15 -3 -42 6
-13 -13 -19 -35 7 -16 64 -5
-22 -45 68 -29 -86 -57 11 -34

tfl.pseudo_qconst4 i1 [8, 384]
00000000: 0000 0000 0000 0000 e000 0000 0000 0000
00000010: 0000 0000 0000 0000 0001 0000 0000 0000
00000020: 0000 2000 0000 0000 0000 0000 0000 0000
00000030: 0000 f900 ef00 d400 b900 0000 3a00 0400
00000040: ff00 0000 0000 0000 fb01 0000 0000 0000
00000050: 0001 00ff 0000 0000 ee00 ff00 0000 00ff
00000060: 0000 0700 0001 0000 fa00 0000 0000 01ff
00000070: 0000 0200 ff00 f500 0400 0000 eb00 2500
00000080: ff01 0000 0100 0000 ea09 0030 ffff 0001
00000090: ffff 0001 0000 00fb 3601 0100 0000 0001
000000a0: 0000 d900 00ff 0000 e300 0100 0000 ffff
000000b0: 0000 3c00 0901 f70a ed00 0000 f600 0100
000000c0: 3836 0000 3d00 3231 512b 48fe 4e37 0052
000000d0: 413d 0033 0000 00c6 b1ec 3137 2a39 2c38
000000e0: 4300 a600 0032 0000 aa00 3c3a 0000 3336
000000f0: 0000 aa00 1b38 4200 a600 0037 0000 cc44
0 0 0 0 0 0 0 0
-32 0 0 0 0 0 0 0
0 0 0 0 0 0 0 0
0 1 0 0 0 0 0 0
0 0 32 0 0 0 0 0
0 0 0 0 0 0 0 0
0 0 -7 0 -17 0 -44 0
-71 0 0 0 58 0 4 0
-1 0 0 0 0 0 0 0
-5 1 0 0 0 0 0 0
0 1 0 -1 0 0 0 0
-18 0 -1 0 0 0 0 -1
0 0 7 0 0 1 0 0
-6 0 0 0 0 0 1 -1
0 0 2 0 -1 0 -11 0
4 0 0 0 -21 0 37 0
-1 1 0 0 1 0 0 0
-22 9 0 48 -1 -1 0 1
-1 -1 0 1 0 0 0 -5
54 1 1 0 0 0 0 1
0 0 -39 0 0 -1 0 0
-29 0 1 0 0 0 -1 -1
0 0 60 0 9 1 -9 10
-19 0 0 0 -10 0 1 0
56 54 0 0 61 0 50 49
81 43 72 -2 78 55 0 82
65 61 0 51 0 0 0 -58
-79 -20 49 55 42 57 44 56
67 0 -90 0 0 50 0 0
-86 0 60 58 0 0 51 54
0 0 -86 0 27 56 66 0
-90 0 0 55 0 0 -52 68
